Chatbot/data.pth (torch, 3647 bytes, 6 tensors)

l1.weight f4 [8, 27]
00000000: d564 43bd a3a6 cd3e 2f40 b83d 8d9f 043e
00000010: f7ba 033f a275 203c fe06 713e fe19 5d3e
00000020: 0e79 993d fa37 cfbe f3ef 323e 3051 cfbe
00000030: d97b 3a3e b8dc 04be 877b 183c ecbc 15bd
00000040: 3afb 143f db8f 793e bf4d 843e fc85 313f
00000050: 6839 403e 2443 a93c 2672 523e ff99 8cbe
00000060: 293d 483d 257c 493e 16ce 153f ca07 e23d
00000070: 2a29 993e 1128 953e ce99 883e 7251 3a3f
00000080: 38ae 873e d579 bc3e e66c ae3d 6e2a 793e
00000090: e504 abbe 24b9 d5bb bbe1 aabe 433b 033e
000000a0: fcce b2bd 4896 443e 3276 a63e dfaa 843e
000000b0: cd69 013f 47a7 b03e 3cf4 aa3e 97a8 b63e
000000c0: 161d 263e 4a59 633e 5ef7 7cbe a0ba 813e
000000d0: f530 bb3e 9186 c43e 7570 85bc ad33 e5bd
000000e0: 5c44 12be e881 33be e319 1e3f a9f6 bbbc
000000f0: f90d 9abe 831c b53d 1884 50be 13fd 0c3f
00000100: d79a 0d3f c1d9 0d3f 98a7 15be f8d4 0e3f
00000110: 6d7e 0fbe db16 11be fa09 4e3e bc5d a9be
00000120: 6399 683c 7bc4 923e 0e61 173e 28b7 bdbe
00000130: 8042 653d 4112 653e 95dd 993d 0bee 33bc
00000140: d722 bd3e 3b8b 933e b2d6 253e 6543 a73b
00000150: c73c cc3c 88fd e73e 6fa7 793e 24fa 263e
00000160: 8fd1 853e 1f8b 833e e4ba 5fbe 6c41 45be
00000170: 2b7f 5fbe d1cd 943e 94bb 703d 0c78 933d
00000180: 1ac8 d43d e860 4b3e ab85 013f e5fc 8fbc
00000190: 5f07 913d 56d6 923d c2ce 093e 0e59 363e
000001a0: f6cf 8dbe cd0e 883d 1904 723e 5602 7e3e
000001b0: 6b61 f13d 4aeb 4f3e c429 803e fc19 993e
000001c0: 3817 fdbe de47 0b3e 6cf0 9b3e e6fc 2a3e
000001d0: 9bbd 9ebb 6fca fa3e 453b a1be 2d56 e73e
000001e0: 3380 a43e 035d be3e a33f bf3d 0d96 3f3d
000001f0: 241b 06be 6463 183f eb41 1a3e 3816 60be
00000200: 3ba6 a73e 0d3a bf3e 40aa 6b3e b021 4e3e
00000210: fa0d a437 2ec1 0d3e 0242 1cbe dde9 f93d
00000220: b400 8bbd 2606 1cbe 4219 b93a 1a0b 5d3f
00000230: 4d0c 833d d241 f7bd 9270 74bd f98b 5bbd
00000240: 46af ccbe 58e0 cc3e c499 ccbe c68e bb3d
00000250: 7cd7 39be a7ce 0fbe 2643 0f3e 6c9a ec3e
00000260: 987b ccbe 8493 d53d 39ce 923e 26b0 7b3d
00000270: 800b a8bd bc33 04be 7772 60be 2d7d 273d
00000280: d919 a73c 2f4a ce3e 5165 603e f095 e83d
00000290: ad5b 393d e638 f83d bb12 b2be 341c e33d
000002a0: 6f4f 833e fb20 653e d594 b43d 53eb a33d
000002b0: 92e2 b6be a526 7b3d d467 243e 91b8 323e
000002c0: a63a 173e 8332 0d3d 91d8 a3bd 2fe2 023f
000002d0: c4cc 623e bbbb a1bc 008d 923e d469 363e
000002e0: 2e37 993e 4d3f 3dbd 0b47 303d ad7a 67bd
000002f0: 8bb2 cabd e24c 9abc 3c72 afbe a376 7e3d
00000300: 0ece f8bb dbfe 023f b55d 2f3d e0a7 10be
00000310: f638 223e dbe9 96bd 3bc0 4e3f 2e5b d73e
00000320: decc 533f edf9 0cbe 4c63 de3e 3491 e03d
00000330: ea09 f8bd 513f b63e c4ae 2abf 4e4b da3d
00000340: 085c e23e 68ac 43be c74b c3be 608b 9fbd
00000350: 75bd da3e 6797 0b3d 9c01 24be e73d 143f
-0.047703583 0.40166196 0.08996617 0.12951489 0.5145716 0.009793671 0.23537824 0.21591946
0.074937925 -0.40472394 0.17474346 -0.4049163 0.18211307 -0.12974823 0.009306795 -0.036557123
0.5819584 0.24371283 0.25840566 0.6934507 0.18771899 0.020661898 0.20551357 -0.2746124
0.048886452 0.19676264 0.5851759 0.11036642 0.29914218 0.2913213 0.26679844 0.72780526
0.26500106 0.368117 0.085168645 0.24332592 -0.33402172 -0.0065223146 -0.33375344 0.12815575
-0.087308854 0.19197953 0.3251205 0.25911614 0.50552064 0.34502622 0.3338946 0.356755
0.16222033 0.2220203 -0.24703738 0.25337696 0.3656079 0.38383916 -0.016288975 -0.11191497
-0.1428389 -0.17530024 0.6175825 -0.022944765 -0.30088785 0.08843329 -0.2036289 0.5507366
0.5531439 0.5541039 -0.14614713 0.55793715 -0.14013071 -0.14168875 0.20120993 -0.33079326
0.0141967265 0.28665528 0.14783117 -0.370538 0.055971622 0.22370245 0.075129665 -0.010982047
0.36940643 0.28817162 0.16195181 0.0051044696 0.024931325 0.45310616 0.24380277 0.16306359
0.26136443 0.25692078 -0.21848637 -0.19263238 -0.21825854 0.29063275 0.05877264 0.072006315
0.10389729 0.19861186 0.50594586 -0.017576644 0.07081484 0.071697876 0.13457778 0.17807409
-0.27697724 0.06643448 0.23634376 0.24805579 0.11786159 0.203046 0.25031865 0.29902637
-0.49431777 0.13601634 0.30456865 0.16698036 -0.00484438 0.4898257 -0.31490532 0.45182934
0.32129058 0.37180337 0.093383096 0.04677396 -0.13096291 0.5952666 0.15064208 -0.21883476
0.3274401 0.37348977 0.23014164 0.20130038 1.9556832e-05 0.13843223 -0.15259555 0.12202809
-0.067872435 -0.1523672 0.0014121907 0.86345065 0.063988306 -0.12073101 -0.059677668 -0.053600285
-0.39977473 0.4001491 -0.39961064 0.09158091 -0.18148607 -0.14043675 0.13990459 0.46211565
-0.39938045 0.10428527 0.2867296 0.061447285 -0.082053185 -0.1291036 -0.21918665 0.04089086
0.020398067 0.40290973 0.21913649 0.11356723 0.045253444 0.121202275 -0.34779915 0.11089364
0.2564654 0.22375862 0.0881745 0.08003869 -0.35719734 0.06131615 0.16055232 0.17453219
0.14768466 0.034472 -0.08000291 0.5112638 0.22148424 -0.019742837 0.286232 0.17813808
0.2992491 -0.046202946 0.0430365 -0.056513477 -0.098973356 -0.018835489 -0.3426684 0.06212486
-0.007592923 0.5117013 0.042813975 -0.14126539 0.15842041 -0.07368823 0.8076207 0.42061752
0.8273448 -0.13767214 0.43435133 0.10965195 -0.12111266 0.35595182 -0.6667292 0.106588945
0.4421084 -0.19108737 -0.3814375 -0.077902555 0.4272267 0.034079935 -0.16016239 0.57906955

l1.bias f4 [8]
00000000: b7ff cd3e a89d a93e 2f60 aa3e 642e 5c3e
00000010: 248b 0d3f c448 cb3e 64b5 b63e b0eb 2a3f
0.40234157 0.33128095 0.33276507 0.21502072 0.55290437 0.39703953 0.35685265 0.6676588

l2.weight f4 [8, 8]
00000000: 0059 213f f8fa 863f f1f3 1cbe d9f8 913f
00000010: 0cb5 c63d 0f5c 0e3f c3c4 8c3e c9f3 36bd
00000020: a7ee be3e 0d79 ab3e 8b2a 0cbf e254 3c3f
00000030: b670 3f3f 885e c6be 54bb dc3d a8f9 9ebe
00000040: 366f d73e 4467 923e 20b1 06bf e0f8 2f3f
00000050: 13b8 db3e 6326 91be b797 f33e 5772 bcbe
00000060: d1cc 873c e7d6 82be 0494 013d 7a90 21be
00000070: 6233 a4be 9eb3 35be 2945 cf3d 554a 873d
00000080: 66fb 3c3f 3294 5f3e fca4 7a3f 75ca 91be
00000090: 2c80 f5be 56df 813f f312 13bf 6698 103f
000000a0: 794c cbbe c756 d6bd 4452 3f3e c8a7 b83d
000000b0: b4ba fe3d 9939 6dbe 859d 02bf c5fa 8b3c
000000c0: a5b1 1bbe 1c9b e8be f5ca a63e 0901 3abf
000000d0: 590e 903f f8a8 8bbe f96e 303f 7975 bc3e
000000e0: aff6 b63e fcc7 d93e 718e 26be 6365 4d3f
000000f0: 7af6 e03e b352 59bd 0072 5e3d b15e 97be
0.6302643 1.054534 -0.15327431 1.1404067 0.09702501 0.5560922 0.27493867 -0.044666085
0.37291452 0.33490792 -0.54752415 0.7356702 0.7478136 -0.38743997 0.107779175 -0.31049848
0.42077035 0.2859441 -0.5261402 0.6873913 0.42913875 -0.283496 0.47576687 -0.36805984
0.016577156 -0.25554582 0.0316353 -0.1577777 -0.32070452 -0.177443 0.10120613 0.066059746
0.73821104 0.21833876 0.97907996 -0.28474775 -0.4794935 1.0146282 -0.5745079 0.5648254
-0.39706782 -0.1046577 0.18683726 0.09016377 0.124379545 -0.23166503 -0.51021606 0.01708735
-0.15204485 -0.4543084 0.3257672 -0.7265783 1.1254379 -0.2727735 0.6891933 0.36808375
0.3573508 0.42535388 -0.16265275 0.8023283 0.43938047 -0.053057384 0.054307938 -0.2956443

l2.bias f4 [8]
00000000: e0a0 84bc 3b65 eb3d 4f09 393e 49f4 28be
00000010: 63da 163f eba8 5abe 166c 153f 808b c33d
-0.016189992 0.114939176 0.18069957 -0.16499437 0.5892698 -0.213535 0.5836805 0.09548092

l3.weight f4 [3, 8]
00000000: 6915 1b3d 5e1c 53bf 9260 1abf ba5d f6bd
00000010: c54a 4e3f 9ed7 5cbe 0259 83bf 6aa5 4bbe
00000020: 7de2 95bf 37fe 44bf 6818 27bf 7e02 8bbe
00000030: 5f2e cc3e 4cda 77be 43db 8e3f e4a3 0abf
00000040: 8683 963c 1afb b83e 456a 213f 1702 aa3e
00000050: 24e3 80bf 7d22 5d3e 40e6 03bf 347b 813e
0.037862215 -0.8246516 -0.60303605 -0.12029596 0.8058284 -0.21566626 -1.0261538 -0.19887319
-1.1709744 -0.769504 -0.65271616 -0.2715034 0.39879128 -0.24204367 1.1160663 -0.5415633
0.018373262 0.36129075 0.6305278 0.3320472 -1.0069318 0.21595187 -0.5152321 0.2528931

l3.bias f4 [3]
00000000: 6d2c 933c 8bc7 be3e b393 96bd
0.01796552 0.37261614 -0.0735239
