Chatbot/data.pth (torch, 3647 bytes, 6 tensors)

l1.weight f4 [8, 27]
000000 cc bd 0c 3d f5 c9 af 3e 45 e4 42 3e 33 a3 98 bd
       0.034360692 0.34333768 0.1903239 -0.07453003
000010 ea c9 76 be bc 2e 8d bd 61 6f f1 3d 1c e5 58 3e
       -0.24100462 -0.068936795 0.11788822 0.21181148
000020 59 10 24 3e 5f 1e 76 be 4d f2 6d be 8e 24 76 be
       0.16021861 -0.24035023 -0.23236962 -0.24037382
000030 7b 10 9a 3e 61 c2 92 bd bf 52 01 3e de 7e 07 3e
       0.300907 -0.07165981 0.12629221 0.1323199
000040 65 9a 1d be 86 81 e5 3e 92 52 fb bc 94 d2 79 bd
       -0.15390928 0.4482538 -0.030679021 -0.06099184
000050 d9 86 cc bc 73 8a 2b 3e 7f 99 31 3e b5 ce 29 be
       -0.024966644 0.16752033 0.1734371 -0.16582759
000060 f7 a7 25 3e 38 5a 96 3d b1 ff 06 bd 5a 5e a3 3d
       0.16177355 0.073414266 -0.03295869 0.079769805
000070 c0 f3 19 be e2 eb ea bc b4 d8 8a 3d fa b8 41 be
       -0.1503439 -0.02867693 0.06779614 -0.18918219
000080 92 d6 a8 3d 0f 22 c4 bd 05 e4 da bd 66 8b 59 3d
       0.08244051 -0.09576809 -0.106880225 0.053111456
000090 c9 65 32 be 1e c7 00 3e 63 ae be 3b 8d ab c2 bd
       -0.1742164 0.12575957 0.0058191284 -0.09505377
0000a0 8d 31 e2 3d 05 6b 20 be 14 d1 06 3e d0 77 a1 3d
       0.11044607 -0.15665825 0.13165694 0.078841805
0000b0 61 6f af bd 02 32 f6 3d 5b f9 7c bd e0 cd 44 be
       -0.08566166 0.12021257 -0.06176124 -0.1921916
0000c0 75 4e bf 3d 52 0f cb bd 85 b7 60 bd 25 da da 3d
       0.09341136 -0.099150315 -0.054862518 0.10686139
0000d0 d5 71 25 3e 54 fb 29 be de b5 ea 3d 70 b7 b7 3e
       0.16156705 -0.1659978 0.1146047 0.3588214
0000e0 8a 6b 46 3e bb b6 f8 ba ae 71 8e be 35 2e 9d 3e
       0.1937696 -0.0018975356 -0.27821106 0.30699316
0000f0 29 da 7d 3e 07 af c7 3e c5 5d 7b 3e e3 ec 8d be
       0.24790253 0.39000723 0.24547489 -0.27719793
000100 c7 71 8a 3c df 7b 8e be 0e c8 81 3e 68 72 df bd
       0.016899956 -0.2782888 0.25347942 -0.10910493
000110 7d a4 15 3e 97 ba 09 3e 7c f7 17 be 67 8f 07 3f
       0.14613529 0.13450085 -0.14840502 0.5295319
000120 04 0d 28 3c 09 d5 f2 3b d6 4e 82 bd d5 8b c8 3e
       0.010257009 0.0074106497 -0.06362693 0.39169183
000130 77 26 4e 3e 85 83 2a be 58 40 76 3d 92 e8 99 3e
       0.2013186 -0.16651733 0.060119957 0.3006025
000140 72 0d 34 be 0b 19 15 3d df 33 b8 3e 2c 00 21 3e
       -0.17583254 0.036400836 0.35977075 0.15722722
000150 d2 ba 3d 3e 33 25 06 be 82 a3 b4 3d 16 ed 59 3e
       0.18528298 -0.13100128 0.08820249 0.21281847
000160 46 5a 0d 3e 3d 98 b0 3e ec a3 5a be 26 d1 88 be
       0.13803968 0.3449115 -0.21351594 -0.26722068
000170 9b 51 0a be 52 ac 0f 3e 15 3e de bd ef b2 9a 3e
       -0.13507693 0.14030579 -0.10851685 0.3021464
000180 20 d1 91 3e 6e 54 b3 3d 28 d1 77 3e af 68 94 3e
       0.28479862 0.08756338 0.2420088 0.28986117
000190 58 ff ec 3c c2 c2 a9 3e 56 36 9c 3e bb fc 8d 3e
       0.028930351 0.331564 0.30510205 0.2773188
0001a0 d4 21 cc bd 84 7c ae 3d db d2 9d 3e 0f ff 0d be
       -0.0996739 0.08519843 0.30824932 -0.13866828
0001b0 a2 d2 8c bc 40 3e 0f 3e 64 c8 51 bd 27 38 10 3e
       -0.017190281 0.1398859 -0.051216498 0.1408392
0001c0 8d e9 bd be f9 ce 60 3e 5d 3e 91 3e ec 1c 99 bd
       -0.37092248 0.21953954 0.28367892 -0.074762195
0001d0 7c c5 0a 3e 3d e3 86 3f 4c b3 4b be 9c 24 67 3f
       0.13551897 1.0538098 -0.19892615 0.90290236
0001e0 4c 24 1a bd 6a 58 50 3f 92 4b db 3c f6 c6 26 bd
       -0.03763227 0.8138491 0.026769433 -0.040717088
0001f0 ff 8b 82 be 36 50 e9 3e ef 2e 16 bd a4 7d 54 be
       -0.25497434 0.4556901 -0.036665853 -0.20751053
000200 da 68 ff 3c 66 20 a1 3e aa 3f fb 3c 64 5d 14 3f
       0.031177927 0.3147003 0.030670006 0.57955
000210 88 50 1b 3e ab 28 97 3e 97 b8 5c 3d c1 ed a5 3c
       0.15167439 0.29523215 0.053886976 0.020254971
000220 14 cd de 3c b8 22 1c 3e 81 86 26 3e 69 ce a7 3e
       0.027197398 0.15247619 0.16262247 0.32774666
000230 71 04 e7 bc 21 b7 d9 3d 00 83 a2 bd e0 04 4a 3d
       -0.02820036 0.10630632 -0.079351425 0.049321055
000240 cf f4 21 be 6b 8b 95 3c d3 8d 20 be d9 4f 83 3e
       -0.15816043 0.018254956 -0.15679102 0.25646856
000250 f2 6c 10 be 54 22 3d 3e e7 d6 0f 3e 85 fc 01 bd
       -0.1410406 0.18470126 0.14046822 -0.031734962
000260 56 7b 02 3f 20 58 20 3e 27 c1 2c bd 65 de 9c 3e
       0.50969446 0.15658617 -0.042176392 0.30638424
000270 b3 72 33 3e bb e0 94 3e a6 2e 4f bc 11 96 9b 3e
       0.17524223 0.29077706 -0.012645399 0.3038793
000280 fd 17 46 3e 80 2a 05 be 0d f7 58 3d a2 e0 02 bf
       0.19345088 -0.13004494 0.05296998 -0.5112401
000290 d9 06 e6 3d df ef 2b 3e 06 f6 f6 be 06 fd 2d 3d
       0.11231775 0.16790722 -0.48234576 0.04247763
0002a0 26 5e 03 bf 61 64 27 be b6 97 41 be 99 83 4c 3f
       -0.51315534 -0.16346885 -0.1890553 0.798883
0002b0 4e 8f db 3d c9 ed 53 3f 9f ed 25 be ad c5 d4 3e
       0.107206926 0.82784706 -0.16203927 0.41557065
0002c0 26 e1 f8 bd 80 ed 7a 3d cb 9d 2b be 97 99 cd bd
       -0.12152319 0.061261654 -0.16759412 -0.100390606
0002d0 24 26 8a 3e d9 08 83 be 25 05 ed bc 7e 76 76 be
       0.26982224 -0.25592688 -0.028933117 -0.24068639
0002e0 63 72 96 3d 34 d0 f0 3e 04 05 36 bd e9 b3 d2 bc
       0.07346036 0.47033846 -0.044438377 -0.025720553
0002f0 f2 e5 69 bd b7 5e f4 bd a1 6a 88 be 42 a7 8b 3c
       -0.05710406 -0.11932128 -0.2664385 0.017047528
000300 d1 78 53 bc 3e 54 5a be 8a b6 25 bd 96 96 87 bd
       -0.012907223 -0.21321198 -0.040457286 -0.06620519
000310 9f 2c e8 bc 30 2e 0f bc d8 80 42 3f cb d2 9c 3e
       -0.02834159 -0.008739039 0.7597785 0.30629572
000320 79 b5 28 3f 1c ae d5 bd 6f e5 92 3e 72 7a c0 3d
       0.65901905 -0.10433599 0.2869067 0.093983546
000330 ed 9b ec 3b e8 fb ee bd fc 66 06 bf aa 06 e4 3d
       0.0072207362 -0.11669141 -0.5250089 0.111340836
000340 d9 ff 20 be 56 87 12 be ae 7c 71 bc b7 6c 37 3d
       -0.15722598 -0.14309439 -0.014739199 0.044781413
000350 a2 b6 01 3f 79 56 49 bd a5 8a f6 bd 68 f6 8b be
       0.506693 -0.049154732 -0.12038163 -0.2733643

l1.bias f4 [8]
000000 93 52 68 3e 10 24 33 be 51 d6 88 3e 05 46 88 3e
       0.2268775 -0.17494226 0.2672601 0.2661592
000010 29 f0 cc 3e 65 94 07 3e 7f 25 f5 3e 53 d9 0b 3f
       0.40026978 0.13240202 0.4788017 0.54628485

l2.weight f4 [8, 8]
000000 9a 1d 8f 3d 49 aa 45 bd 46 d9 c8 be 41 7f eb 3d
       0.06988068 -0.0482581 -0.39228266 0.11498881
000010 9f 6e cc 3f b5 69 ff be 56 85 b9 3e 0e fa e9 3e
       1.5971259 -0.49885336 0.3623454 0.4569859
000020 90 cf 6d 3e a8 60 5c 3e 91 5e 77 3d b9 56 04 3f
       0.2322371 0.21521246 0.06039292 0.5169483
000030 5e 1b ab 3c 22 3e 12 3f 45 0b ab be 55 19 ed bd
       0.020887073 0.5712606 -0.33407035 -0.11577097
000040 38 38 0e 3f 07 4d 87 bd 56 19 27 3f f0 10 f7 3e
       0.55554533 -0.06606489 0.65273035 0.4825511
000050 11 78 fe 3e bb 79 0a 3f 1b d9 29 3e 39 48 2c bf
       0.49700978 0.54091996 0.16586725 -0.67297703
000060 fd 63 f5 be 5b 05 01 bd 0d 64 01 3d 43 c6 51 be
       -0.47927848 -0.031499248 0.031589556 -0.20485787
000070 d7 c0 5f 3f 71 8e 3b bf 83 eb 5a 3f 22 21 6b 3f
       0.87403625 -0.73264223 0.8551561 0.9184743
000080 15 85 9a 3e 36 16 0a bd 7c 71 d0 3e 87 3f d8 3e
       0.3017966 -0.03371259 0.40711582 0.42235968
000090 fb 05 8d 3e f7 1e d0 3e f4 51 83 3d f0 10 96 be
       0.27543625 0.40648624 0.06412116 -0.29309797
0000a0 c8 18 07 3f 58 27 94 be 7b d3 97 3e 2d 0b f5 3e
       0.5277219 -0.28936267 0.29653534 0.4786009
0000b0 77 2c 06 3f a8 a7 b9 3e d9 15 7a 3e 18 fc 04 bf
       0.524116 0.36260724 0.24422397 -0.51947165
0000c0 a3 0f 00 bd 0b 04 ce bd 46 33 99 be ec a3 a1 bd
       -0.031264912 -0.10059365 -0.2992193 -0.07892594
0000d0 42 99 d5 3c c6 e6 3b be 7d ce 27 3d 24 8f 13 be
       0.026074056 -0.18349752 0.040968407 -0.14410073
0000e0 6c 94 e5 3e 6a 4c 90 3e 70 b7 5f 3f 98 08 41 3f
       0.448398 0.281833 0.8738928 0.7540374
0000f0 30 25 fd 3e 9e 0d 10 3f af 4f 15 3e 43 58 e7 be
       0.49442434 0.5627078 0.14581178 -0.45184526

l2.bias f4 [8]
000000 ce b0 f1 bc fd 01 fc 3e 78 0e d6 bd 4f a1 f2 3e
       -0.029503252 0.49220267 -0.104519784 0.47388694
000010 74 18 1d be 93 0b c9 bd 31 98 1a bd eb 4f 66 be
       -0.1534136 -0.09816661 -0.037742797 -0.22491424

l3.weight f4 [3, 8]
000000 74 2d 66 bf 43 cf 27 3f 29 a3 e2 be c2 19 a7 3d
       -0.89913106 0.6555063 -0.44265106 0.0815921
000010 03 00 10 bf 1e c3 23 bf 1e 07 38 3e 3e c7 9b bf
       -0.5625002 -0.639696 0.17971465 -1.2170179
000020 e4 0d 25 3f 33 e1 48 bf e8 46 09 bf 11 16 1e 3f
       0.6447432 -0.78468627 -0.5362382 0.6175242
000030 67 5c 36 bf 70 db fc be 5e fd 18 bd 8f 76 86 bf
       -0.71234745 -0.49386168 -0.037351005 -1.0504931
000040 23 03 10 bf b0 73 cc bd 10 92 36 3f 1d 10 9c bf
       -0.56254786 -0.09983003 0.71316624 -1.2192417
000050 40 b5 3a 3f 70 02 0e 3f 23 1d a7 3e 3a 2a 44 3f
       0.72932816 0.5547247 0.32639417 0.7662693

l3.bias f4 [3]
000000 af 42 80 3f 95 10 23 bf 6a e0 65 bf
       1.002035 -0.6369718 -0.89795554
